…
save_json: false
save_hybrid: false
conf: null
iou: 0.7
max_det: 300
half: false
dnn: false
plots: true
source: null
vid_stride: 1
stream_buffer: false
visualize: false
augment: false
agnostic_nms: false
classes: null
retina_masks: false
embed: null
show: false
save_frames: false
save_txt: false
save_conf: false
save_crop: false
show_labels: true
show_conf: true
show_boxes: true
line_width: null
format: torchscript
keras: false
optimize: false
int8: false
dynamic: false
simplify: true
opset: null
workspace: 4
nms: false
teacher: "DetectionModel(\n  (model): Sequential(\n    (0): Conv(\n      (conv): Conv2d(3,\
  \ 64, kernel_size=(3, 3), stride=(2, 2), padding=(1, 1), bias=False)\n      (bn):\
  \ BatchNorm2d(64, eps=0.001, momentum=0.03, affine=True, track_running_stats=True)\n\
  \      (act): SiLU(inplace=True)\n    )\n    (1): Conv(\n      (conv): Conv2d(64,\
  \ 128, kernel_size=(3, 3), stride=(2, 2), padding=(1, 1), bias=False)\n      (bn):\
  \ BatchNorm2d(128, eps=0.001, momentum=0.03, affine=True, track_running_stats=True)\n\
  \      (act): SiLU(inplace=True)\n    )\n    (2): C3k2(\n      (cv1): Conv(\n  \
  \      (conv): Conv2d(128, 128, kernel_size=(1, 1), stride=(1, 1), bias=False)\n\
  \        (bn): BatchNorm2d(128, eps=0.001, momentum=0.03, affine=True, track_running_stats=True)\n\
  \        (act): SiLU(inplace=True)\n      )\n      (cv2): Conv(\n        (conv):\
  \ Conv2d(192, 256, kernel_size=(1, 1), stride=(1, 1), bias=False)\n        (bn):\
  \ BatchNorm2d(256, eps=0.001, momentum=0.03, affine=True, track_running_stats=True)\n\
  \        (act): SiLU(inplace=True)\n      )\n      (m): ModuleList(\n        (0):\
  \ C3k(\n          (cv1): Conv(\n            (conv): Conv2d(64, 32, kernel_size=(1,\
  \ 1), stride=(1, 1), bias=False)\n            (bn): BatchNorm2d(32, eps=0.001, momentum=0.03,\
  \ affine=True, track_running_stats=True)\n            (act): SiLU(inplace=True)\n\
  \          )\n          (cv2): Conv(\n            (conv): Conv2d(64, 32, kernel_size=(1,\
  \ 1), stride=(1, 1), bias=False)\n            (bn): BatchNorm2d(32, eps=0.001, momentum=0.03,\
  \ affine=True, track_running_stats=True)\n            (act): SiLU(inplace=True)\n\
  \          )\n          (cv3): Conv(\n            (conv): Conv2d(64, 64, kernel_size=(1,\
  \ 1), stride=(1, 1), bias=False)\n            (bn): BatchNorm2d(64, eps=0.001, momentum=0.03,\
  \ affine=True, track_running_stats=True)\n            (act): SiLU(inplace=True)\n\
  \          )\n          (m): Sequential(\n            (0): Bottleneck(\n       \
  \       (cv1): Conv(\n                (conv): Conv2d(32, 32, kernel_size=(3, 3),\
  \ stride=(1, 1), padding=(1, 1), bias=False)\n                (bn): BatchNorm2d(32,\
  \ eps=0.001, momentum=0.03, affine=True, track_running_stats=True)\n           \
  \     (act): SiLU(inplace=True)\n              )\n              (cv2): Conv(\n \
  \               (conv): Conv2d(32, 32, kernel_size=(3, 3), stride=(1, 1), padding=(1,\
  \ 1), bias=False)\n                (bn): BatchNorm2d(32, eps=0.001, momentum=0.03,\
  \ affine=True, track_running_stats=True)\n                (act): SiLU(inplace=True)\n\
  \              )\n            )\n            (1): Bottleneck(\n              (cv1):\
  \ Conv(\n                (conv): Conv2d(32, 32, kernel_size=(3, 3), stride=(1, 1),\
  \ padding=(1, 1), bias=False)\n                (bn): BatchNorm2d(32, eps=0.001,\
  \ momentum=0.03, affine=True, track_running_stats=True)\n                (act):\
  \ SiLU(inplace=True)\n              )\n              (cv2): Conv(\n            \
  \    (conv): Conv2d(32, 32, kernel_size=(3, 3), stride=(1, 1), padding=(1, 1), bias=False)\n\
  \                (bn): BatchNorm2d(32, eps=0.001, momentum=0.03, affine=True, track_running_stats=True)\n\
  \                (act): SiLU(inplace=True)\n              )\n            )\n   \
  \       )\n        )\n      )\n    )\n    (3): Conv(\n      (conv): Conv2d(256,\
  \ 256, kernel_size=(3, 3), stride=(2, 2), padding=(1, 1), bias=False)\n      (bn):\
  \ BatchNorm2d(256, eps=0.001, momentum=0.03, affine=True, track_running_stats=True)\n\
  \      (act): SiLU(inplace=True)\n    )\n    (4): C3k2(\n      (cv1): Conv(\n  \
  \      (conv): Conv2d(256, 256, kernel_size=(1, 1), stride=(1, 1), bias=False)\n\
  \        (bn): BatchNorm2d(256, eps=0.001, momentum=0.03, affine=True, track_running_stats=True)\n\
  \        (act): SiLU(inplace=True)\n      )\n      (cv2): Conv(\n        (conv):\
  \ Conv2d(384, 512, kernel_size=(1, 1), stride=(1, 1), bias=False)\n        (bn):\
  \ BatchNorm2d(512, eps=0.001, momentum=0.03, affine=True, track_running_stats=True)\n\
  \        (act): SiLU(inplace=True)\n      )\n      (m): ModuleList(\n        (0):\
  \ C3k(\n          (cv1): Conv(\n            (conv): Conv2d(128, 64, kernel_size=(1,\
  \ 1), stride=(1, 1), bias=False)\n            (bn): BatchNorm2d(64, eps=0.001, momentum=0.03,\
  \ affine=True, track_running_stats=True)\n            (act): SiLU(inplace=True)\n\
  \          )\n          (cv2): Conv(\n            (conv): Conv2d(128, 64, kernel_size=(1,\
  \ 1), stride=(1, 1), bias=False)\n            (bn): BatchNorm2d(64, eps=0.001, momentum=0.03,\
  \ affine=True, track_running_stats=True)\n            (act): SiLU(inplace=True)\n\
  \          )\n          (cv3): Conv(\n            (conv): Conv2d(128, 128, kernel_size=(1,\
  \ 1), stride=(1, 1), bias=False)\n            (bn): BatchNorm2d(128, eps=0.001,\
  \ momentum=0.03, affine=True, track_running_stats=True)\n            (act): SiLU(inplace=True)\n\
  \          )\n          (m): Sequential(\n            (0): Bottleneck(\n       \
  \       (cv1): Conv(\n                (conv): Conv2d(64, 64, kernel_size=(3, 3),\
  \ stride=(1, 1), padding=(1, 1), bias=False)\n                (bn): BatchNorm2d(64,\
  \ eps=0.001, momentum=0.03, affine=True, track_running_stats=True)\n           \
  \     (act): SiLU(inplace=True)\n              )\n              (cv2): Conv(\n \
  \               (conv): Conv2d(64, 64, kernel_size=(3, 3), stride=(1, 1), padding=(1,\
  \ 1), bias=False)\n                (bn): BatchNorm2d(64, eps=0.001, momentum=0.03,\
  \ affine=True, track_running_stats=True)\n                (act): SiLU(inplace=True)\n\
  \              )\n            )\n            (1): Bottleneck(\n              (cv1):\
  \ Conv(\n                (conv): Conv2d(64, 64, kernel_size=(3, 3), stride=(1, 1),\
  \ padding=(1, 1), bias=False)\n                (bn): BatchNorm2d(64, eps=0.001,\
  \ momentum=0.03, affine=True, track_running_stats=True)\n                (act):\
  \ SiLU(inplace=True)\n              )\n              (cv2): Conv(\n            \
  \    (conv): Conv2d(64, 64, kernel_size=(3, 3), stride=(1, 1), padding=(1, 1), bias=False)\n\
  \                (bn): BatchNorm2d(64, eps=0.001, momentum=0.03, affine=True, track_running_stats=True)\n\
  \                (act): SiLU(inplace=True)\n              )\n            )\n   \
  \       )\n        )\n      )\n    )\n    (5): Conv(\n      (conv): Conv2d(512,\
  \ 512, kernel_size=(3, 3), stride=(2, 2), padding=(1, 1), bias=False)\n      (bn):\
  \ BatchNorm2d(512, eps=0.001, momentum=0.03, affine=True, track_running_stats=True)\n\
  \      (act): SiLU(inplace=True)\n    )\n    (6): C3k2(\n      (cv1): Conv(\n  \
  \      (conv): Conv2d(512, 512, kernel_size=(1, 1), stride=(1, 1), bias=False)\n\
  \        (bn): BatchNorm2d(512, eps=0.001, momentum=0.03, affine=True, track_running_stats=True)\n\
  \        (act): SiLU(inplace=True)\n      )\n      (cv2): Conv(\n        (conv):\
  \ Conv2d(768, 512, kernel_size=(1, 1), stride=(1, 1), bias=False)\n        (bn):\
  \ BatchNorm2d(512, eps=0.001, momentum=0.03, affine=True, track_running_stats=True)\n\
  \        (act): SiLU(inplace=True)\n      )\n      (m): ModuleList(\n        (0):\
  \ C3k(\n          (cv1): Conv(\n            (conv): Conv2d(256, 128, kernel_size=(1,\
  \ 1), stride=(1, 1), bias=False)\n            (bn): BatchNorm2d(128, eps=0.001,\
  \ momentum=0.03, affine=True, track_running_stats=True)\n            (act): SiLU(inplace=True)\n\
  \          )\n          (cv2): Conv(\n            (conv): Conv2d(256, 128, kernel_size=(1,\
  \ 1), stride=(1, 1), bias=False)\n            (bn): BatchNorm2d(128, eps=0.001,\
  \ momentum=0.03, affine=True, track_running_stats=True)\n            (act): SiLU(inplace=True)\n\
  \          )\n          (cv3): Conv(\n            (conv): Conv2d(256, 256, kernel_size=(1,\
  \ 1), stride=(1, 1), bias=False)\n            (bn): BatchNorm2d(256, eps=0.001,\
  \ momentum=0.03, affine=True, track_running_stats=True)\n            (act): SiLU(inplace=True)\n\
  \          )\n          (m): Sequential(\n            (0): Bottleneck(\n       \
  \       (cv1): Conv(\n                (conv): Conv2d(128, 128, kernel_size=(3, 3),\
  \ stride=(1, 1), padding=(1, 1), bias=False)\n                (bn): BatchNorm2d(128,\
  \ eps=0.001, momentum=0.03, affine=True, track_running_stats=True)\n           \
  \     (act): SiLU(inplace=True)\n              )\n              (cv2): Conv(\n \
  \               (conv): Conv2d(128, 128, kernel_size=(3, 3), stride=(1, 1), padding=(1,\
  \ 1), bias=False)\n                (bn): BatchNorm2d(128, eps=0.001, momentum=0.03,\
  \ affine=True, track_running_stats=True)\n                (act): SiLU(inplace=True)\n\
  \              )\n            )\n            (1): Bottleneck(\n              (cv1):\
  \ Conv(\n                (conv): Conv2d(128, 128, kernel_size=(3, 3), stride=(1,\
  \ 1), padding=(1, 1), bias=False)\n                (bn): BatchNorm2d(128, eps=0.001,\
  \ momentum=0.03, affine=True, track_running_stats=True)\n                (act):\
  \ SiLU(inplace=True)\n              )\n              (cv2): Conv(\n            \
  \    (conv): Conv2d(128, 128, kernel_size=(3, 3), stride=(1, 1), padding=(1, 1),\
  \ bias=False)\n                (bn): BatchNorm2d(128, eps=0.001, momentum=0.03,\
  \ affine=True, track_running_stats=True)\n                (act): SiLU(inplace=True)\n\
  \              )\n            )\n          )\n        )\n      )\n    )\n    (7):\
  \ Conv(\n      (conv): Conv2d(512, 512, kernel_size=(3, 3), stride=(2, 2), padding=(1,\
  \ 1), bias=False)\n      (bn): BatchNorm2d(512, eps=0.001, momentum=0.03, affine=True,\
  \ track_running_stats=True)\n      (act): SiLU(inplace=True)\n    )\n    (8): C3k2(\n\
  \      (cv1): Conv(\n        (conv): Conv2d(512, 512, kernel_size=(1, 1), stride=(1,\
  \ 1), bias=False)\n        (bn): BatchNorm2d(512, eps=0.001, momentum=0.03, affine=True,\
  \ track_running_stats=True)\n        (act): SiLU(inplace=True)\n      )\n      (cv2):\
  \ Conv(\n        (conv): Conv2d(768, 512, kernel_size=(1, 1), stride=(1, 1), bias=False)\n\
  \        (bn): BatchNorm2d(512, eps=0.001, momentum=0.03, affine=True, track_running_stats=True)\n\
  \        (act): SiLU(inplace=True)\n      )\n      (m): ModuleList(\n        (0):\
  \ C3k(\n          (cv1): Conv(\n            (conv): Conv2d(256, 128, kernel_size=(1,\
  \ 1), stride=(1, 1), bias=False)\n            (bn): BatchNorm2d(128, eps=0.001,\
  \ momentum=0.03, affine=True, track_running_stats=True)\n            (act): SiLU(inplace=True)\n\
  \          )\n          (cv2): Conv(\n            (conv): Conv2d(256, 128, kernel_size=(1,\
  \ 1), stride=(1, 1), bias=False)\n            (bn): BatchNorm2d(128, eps=0.001,\
  \ momentum=0.03, affine=True, track_running_stats=True)\n            (act): SiLU(inplace=True)\n\
  \          )\n          (cv3): Conv(\n            (conv): Conv2d(256, 256, kernel_size=(1,\
  \ 1), stride=(1, 1), bias=False)\n            (bn): BatchNorm2d(256, eps=0.001,\
  \ momentum=0.03, affine=True, track_running_stats=True)\n            (act): SiLU(inplace=True)\n\
  \          )\n          (m): Sequential(\n            (0): Bottleneck(\n       \
  \       (cv1): Conv(\n                (conv): Conv2d(128, 128, kernel_size=(3, 3),\
  \ stride=(1, 1), padding=(1, 1), bias=False)\n                (bn): BatchNorm2d(128,\
  \ eps=0.001, momentum=0.03, affine=True, track_running_stats=True)\n           \
  \     (act): SiLU(inplace=True)\n              )\n              (cv2): Conv(\n \
  \               (conv): Conv2d(128, 128, kernel_size=(3, 3), stride=(1, 1), padding=(1,\
  \ 1), bias=False)\n                (bn): BatchNorm2d(128, eps=0.001, momentum=0.03,\
  \ affine=True, track_running_stats=True)\n                (act): SiLU(inplace=True)\n\
  \              )\n            )\n            (1): Bottleneck(\n              (cv1):\
  \ Conv(\n                (conv): Conv2d(128, 128, kernel_size=(3, 3), stride=(1,\
  \ 1), padding=(1, 1), bias=False)\n                (bn): BatchNorm2d(128, eps=0.001,\
  \ momentum=0.03, affine=True, track_running_stats=True)\n                (act):\
  \ SiLU(inplace=True)\n              )\n              (cv2): Conv(\n            \
  \    (conv): Conv2d(128, 128, kernel_size=(3, 3), stride=(1, 1), padding=(1, 1),\
  \ bias=False)\n                (bn): BatchNorm2d(128, eps=0.001, momentum=0.03,\
  \ affine=True, track_running_stats=True)\n                (act): SiLU(inplace=True)\n\
  \              )\n            )\n          )\n        )\n      )\n    )\n    (9):\
  \ SPPF(\n      (cv1): Conv(\n        (conv): Conv2d(512, 256, kernel_size=(1, 1),\
  \ stride=(1, 1), bias=False)\n        (bn): BatchNorm2d(256, eps=0.001, momentum=0.03,\
  \ affine=True, track_running_stats=True)\n        (act): Identity()\n      )\n \
  \     (cv2): Conv(\n        (conv): Conv2d(1024, 512, kernel_size=(1, 1), stride=(1,\
  \ 1), bias=False)\n        (bn): BatchNorm2d(512, eps=0.001, momentum=0.03, affine=True,\
  \ track_running_stats=True)\n        (act): SiLU(inplace=True)\n      )\n      (m):\
  \ MaxPool2d(kernel_size=5, stride=1, padding=2, dilation=1, ceil_mode=False)\n \
  \   )\n    (10): C2PSA(\n      (cv1): Conv(\n        (conv): Conv2d(512, 512, kernel_size=(1,\
  \ 1), stride=(1, 1), bias=False)\n        (bn): BatchNorm2d(512, eps=0.001, momentum=0.03,\
  \ affine=True, track_running_stats=True)\n        (act): SiLU(inplace=True)\n  \
  \    )\n      (cv2): Conv(\n        (conv): Conv2d(512, 512, kernel_size=(1, 1),\
  \ stride=(1, 1), bias=False)\n        (bn): BatchNorm2d(512, eps=0.001, momentum=0.03,\
  \ affine=True, track_running_stats=True)\n        (act): SiLU(inplace=True)\n  \
  \    )\n      (m): Sequential(\n        (0): PSABlock(\n          (attn): Attention(\n\
  \            (qkv): Conv(\n              (conv): Conv2d(256, 512, kernel_size=(1,\
  \ 1), stride=(1, 1), bias=False)\n              (bn): BatchNorm2d(512, eps=0.001,\
  \ momentum=0.03, affine=True, track_running_stats=True)\n              (act): Identity()\n\
  \            )\n            (proj): Conv(\n              (conv): Conv2d(256, 256,\
  \ kernel_size=(1, 1), stride=(1, 1), bias=False)\n              (bn): BatchNorm2d(256,\
  \ eps=0.001, momentum=0.03, affine=True, track_running_stats=True)\n           \
  \   (act): Identity()\n            )\n            (pe): Conv(\n              (conv):\
  \ Conv2d(256, 256, kernel_size=(3, 3), stride=(1, 1), padding=(1, 1), groups=256,\
  \ bias=False)\n              (bn): BatchNorm2d(256, eps=0.001, momentum=0.03, affine=True,\
  \ track_running_stats=True)\n              (act): Identity()\n            )\n  \
  \        )\n          (ffn): Sequential(\n            (0): Conv(\n             \
  \ (conv): Conv2d(256, 512, kernel_size=(1, 1), stride=(1, 1), bias=False)\n    \
  \          (bn): BatchNorm2d(512, eps=0.001, momentum=0.03, affine=True, track_running_stats=True)\n\
  \              (act): SiLU(inplace=True)\n            )\n            (1): Conv(\n\
  \              (conv): Conv2d(512, 256, kernel_size=(1, 1), stride=(1, 1), bias=False)\n\
  \              (bn): BatchNorm2d(256, eps=0.001, momentum=0.03, affine=True, track_running_stats=True)\n\
  \              (act): Identity()\n            )\n          )\n        )\n      )\n\
  \    )\n    (11): Upsample(scale_factor=2.0, mode='nearest')\n    (12): Concat()\n\
  \    (13): C3k2(\n      (cv1): Conv(\n        (conv): Conv2d(1024, 512, kernel_size=(1,\
  \ 1), stride=(1, 1), bias=False)\n        (bn): BatchNorm2d(512, eps=0.001, momentum=0.03,\
  \ affine=True, track_running_stats=True)\n        (act): SiLU(inplace=True)\n  \
  \    )\n      (cv2): Conv(\n        (conv): Conv2d(768, 512, kernel_size=(1, 1),\
  \ stride=(1, 1), bias=False)\n        (bn): BatchNorm2d(512, eps=0.001, momentum=0.03,\
  \ affine=True, track_running_stats=True)\n        (act): SiLU(inplace=True)\n  \
  \    )\n      (m): ModuleList(\n        (0): C3k(\n          (cv1): Conv(\n    \
  \        (conv): Conv2d(256, 128, kernel_size=(1, 1), stride=(1, 1), bias=False)\n\
  \            (bn): BatchNorm2d(128, eps=0.001, momentum=0.03, affine=True, track_running_stats=True)\n\
  \            (act): SiLU(inplace=True)\n          )\n          (cv2): Conv(\n  \
  \          (conv): Conv2d(256, 128, kernel_size=(1, 1), stride=(1, 1), bias=False)\n\
  \            (bn): BatchNorm2d(128, eps=0.001, momentum=0.03, affine=True, track_running_stats=True)\n\
  \            (act): SiLU(inplace=True)\n          )\n          (cv3): Conv(\n  \
  \          (conv): Conv2d(256, 256, kernel_size=(1, 1), stride=(1, 1), bias=False)\n\
  \            (bn): BatchNorm2d(256, eps=0.001, momentum=0.03, affine=True, track_running_stats=True)\n\
  \            (act): SiLU(inplace=True)\n          )\n          (m): Sequential(\n\
  \            (0): Bottleneck(\n              (cv1): Conv(\n                (conv):\
  \ Conv2d(128, 128, kernel_size=(3, 3), stride=(1, 1), padding=(1, 1), bias=False)\n\
  \                (bn): BatchNorm2d(128, eps=0.001, momentum=0.03, affine=True, track_running_stats=True)\n\
  \                (act): SiLU(inplace=True)\n              )\n              (cv2):\
  \ Conv(\n                (conv): Conv2d(128, 128, kernel_size=(3, 3), stride=(1,\
  \ 1), padding=(1, 1), bias=False)\n                (bn): BatchNorm2d(128, eps=0.001,\
  \ momentum=0.03, affine=True, track_running_stats=True)\n                (act):\
  \ SiLU(inplace=True)\n              )\n            )\n            (1): Bottleneck(\n\
  \              (cv1): Conv(\n                (conv): Conv2d(128, 128, kernel_size=(3,\
  \ 3), stride=(1, 1), padding=(1, 1), bias=False)\n                (bn): BatchNorm2d(128,\
  \ eps=0.001, momentum=0.03, affine=True, track_running_stats=True)\n           \
  \     (act): SiLU(inplace=True)\n              )\n              (cv2): Conv(\n \
  \               (conv): Conv2d(128, 128, kernel_size=(3, 3), stride=(1, 1), padding=(1,\
  \ 1), bias=False)\n                (bn): BatchNorm2d(128, eps=0.001, momentum=0.03,\
  \ affine=True, track_running_stats=True)\n                (act): SiLU(inplace=True)\n\
  \              )\n            )\n          )\n        )\n      )\n    )\n    (14):\
  \ Upsample(scale_factor=2.0, mode='nearest')\n    (15): Concat()\n    (16): C3k2(\n\
  \      (cv1): Conv(\n        (conv): Conv2d(1024, 256, kernel_size=(1, 1), stride=(1,\
  \ 1), bias=False)\n        (bn): BatchNorm2d(256, eps=0.001, momentum=0.03, affine=True,\
  \ track_running_stats=True)\n        (act): SiLU(inplace=True)\n      )\n      (cv2):\
  \ Conv(\n        (conv): Conv2d(384, 256, kernel_size=(1, 1), stride=(1, 1), bias=False)\n\
  \        (bn): BatchNorm2d(256, eps=0.001, momentum=0.03, affine=True, track_running_stats=True)\n\
  \        (act): SiLU(inplace=True)\n      )\n      (m): ModuleList(\n        (0):\
  \ C3k(\n          (cv1): Conv(\n            (conv): Conv2d(128, 64, kernel_size=(1,\
  \ 1), stride=(1, 1), bias=False)\n            (bn): BatchNorm2d(64, eps=0.001, momentum=0.03,\
  \ affine=True, track_running_stats=True)\n            (act): SiLU(inplace=True)\n\
  \          )\n          (cv2): Conv(\n            (conv): Conv2d(128, 64, kernel_size=(1,\
  \ 1), stride=(1, 1), bias=False)\n            (bn): BatchNorm2d(64, eps=0.001, momentum=0.03,\
  \ affine=True, track_running_stats=True)\n            (act): SiLU(inplace=True)\n\
  \          )\n          (cv3): Conv(\n            (conv): Conv2d(128, 128, kernel_size=(1,\
  \ 1), stride=(1, 1), bias=False)\n            (bn): BatchNorm2d(128, eps=0.001,\
  \ momentum=0.03, affine=True, track_running_stats=True)\n            (act): SiLU(inplace=True)\n\
  \          )\n          (m): Sequential(\n            (0): Bottleneck(\n       \
  \       (cv1): Conv(\n                (conv): Conv2d(64, 64, kernel_size=(3, 3),\
  \ stride=(1, 1), padding=(1, 1), bias=False)\n                (bn): BatchNorm2d(64,\
  \ eps=0.001, momentum=0.03, affine=True, track_running_stats=True)\n           \
  \     (act): SiLU(inplace=True)\n              )\n              (cv2): Conv(\n \
  \               (conv): Conv2d(64, 64, kernel_size=(3, 3), stride=(1, 1), padding=(1,\
  \ 1), bias=False)\n                (bn): BatchNorm2d(64, eps=0.001, momentum=0.03,\
  \ affine=True, track_running_stats=True)\n                (act): SiLU(inplace=True)\n\
  \              )\n            )\n            (1): Bottleneck(\n              (cv1):\
  \ Conv(\n                (conv): Conv2d(64, 64, kernel_size=(3, 3), stride=(1, 1),\
  \ padding=(1, 1), bias=False)\n                (bn): BatchNorm2d(64, eps=0.001,\
  \ momentum=0.03, affine=True, track_running_stats=True)\n                (act):\
  \ SiLU(inplace=True)\n              )\n              (cv2): Conv(\n            \
  \    (conv): Conv2d(64, 64, kernel_size=(3, 3), stride=(1, 1), padding=(1, 1), bias=False)\n\
  \                (bn): BatchNorm2d(64, eps=0.001, momentum=0.03, affine=True, track_running_stats=True)\n\
  \                (act): SiLU(inplace=True)\n              )\n            )\n   \
  \       )\n        )\n      )\n    )\n    (17): Conv(\n      (conv): Conv2d(256,\
  \ 256, kernel_size=(3, 3), stride=(2, 2), padding=(1, 1), bias=False)\n      (bn):\
  \ BatchNorm2d(256, eps=0.001, momentum=0.03, affine=True, track_running_stats=True)\n\
  \      (act): SiLU(inplace=True)\n    )\n    (18): Concat()\n    (19): C3k2(\n \
  \     (cv1): Conv(\n        (conv): Conv2d(768, 512, kernel_size=(1, 1), stride=(1,\
  \ 1), bias=False)\n        (bn): BatchNorm2d(512, eps=0.001, momentum=0.03, affine=True,\
  \ track_running_stats=True)\n        (act): SiLU(inplace=True)\n      )\n      (cv2):\
  \ Conv(\n        (conv): Conv2d(768, 512, kernel_size=(1, 1), stride=(1, 1), bias=False)\n\
  \        (bn): BatchNorm2d(512, eps=0.001, momentum=0.03, affine=True, track_running_stats=True)\n\
  \        (act): SiLU(inplace=True)\n      )\n      (m): ModuleList(\n        (0):\
  \ C3k(\n          (cv1): Conv(\n            (conv): Conv2d(256, 128, kernel_size=(1,\
  \ 1), stride=(1, 1), bias=False)\n            (bn): BatchNorm2d(128, eps=0.001,\
  \ momentum=0.03, affine=True, track_running_stats=True)\n            (act): SiLU(inplace=True)\n\
  \          )\n          (cv2): Conv(\n            (conv): Conv2d(256, 128, kernel_size=(1,\
  \ 1), stride=(1, 1), bias=False)\n            (bn): BatchNorm2d(128, eps=0.001,\
  \ momentum=0.03, affine=True, track_running_stats=True)\n            (act): SiLU(inplace=True)\n\
  \          )\n          (cv3): Conv(\n            (conv): Conv2d(256, 256, kernel_size=(1,\
  \ 1), stride=(1, 1), bias=False)\n            (bn): BatchNorm2d(256, eps=0.001,\
  \ momentum=0.03, affine=True, track_running_stats=True)\n            (act): SiLU(inplace=True)\n\
  \          )\n          (m): Sequential(\n            (0): Bottleneck(\n       \
  \       (cv1): Conv(\n                (conv): Conv2d(128, 128, kernel_size=(3, 3),\
  \ stride=(1, 1), padding=(1, 1), bias=False)\n                (bn): BatchNorm2d(128,\
  \ eps=0.001, momentum=0.03, affine=True, track_running_stats=True)\n           \
  \     (act): SiLU(inplace=True)\n              )\n              (cv2): Conv(\n \
  \               (conv): Conv2d(128, 128, kernel_size=(3, 3), stride=(1, 1), padding=(1,\
  \ 1), bias=False)\n                (bn): BatchNorm2d(128, eps=0.001, momentum=0.03,\
  \ affine=True, track_running_stats=True)\n                (act): SiLU(inplace=True)\n\
  \              )\n            )\n            (1): Bottleneck(\n              (cv1):\
  \ Conv(\n                (conv): Conv2d(128, 128, kernel_size=(3, 3), stride=(1,\
  \ 1), padding=(1, 1), bias=False)\n                (bn): BatchNorm2d(128, eps=0.001,\
  \ momentum=0.03, affine=True, track_running_stats=True)\n                (act):\
  \ SiLU(inplace=True)\n              )\n              (cv2): Conv(\n            \
  \    (conv): Conv2d(128, 128, kernel_size=(3, 3), stride=(1, 1), padding=(1, 1),\
  \ bias=False)\n                (bn): BatchNorm2d(128, eps=0.001, momentum=0.03,\
  \ affine=True, track_running_stats=True)\n                (act): SiLU(inplace=True)\n\
  \              )\n            )\n          )\n        )\n      )\n    )\n    (20):\
  \ Conv(\n      (conv): Conv2d(512, 512, kernel_size=(3, 3), stride=(2, 2), padding=(1,\
  \ 1), bias=False)\n      (bn): BatchNorm2d(512, eps=0.001, momentum=0.03, affine=True,\
  \ track_running_stats=True)\n      (act): SiLU(inplace=True)\n    )\n    (21): Concat()\n\
  \    (22): C3k2(\n      (cv1): Conv(\n        (conv): Conv2d(1024, 512, kernel_size=(1,\
  \ 1), stride=(1, 1), bias=False)\n        (bn): BatchNorm2d(512, eps=0.001, momentum=0.03,\
  \ affine=True, track_running_stats=True)\n        (act): SiLU(inplace=True)\n  \
  \    )\n      (cv2): Conv(\n        (conv): Conv2d(768, 512, kernel_size=(1, 1),\
  \ stride=(1, 1), bias=False)\n        (bn): BatchNorm2d(512, eps=0.001, momentum=0.03,\
  \ affine=True, track_running_stats=True)\n        (act): SiLU(inplace=True)\n  \
  \    )\n      (m): ModuleList(\n        (0): C3k(\n          (cv1): Conv(\n    \
  \        (conv): Conv2d(256, 128, kernel_size=(1, 1), stride=(1, 1), bias=False)\n\
  \            (bn): BatchNorm2d(128, eps=0.001, momentum=0.03, affine=True, track_running_stats=True)\n\
  \            (act): SiLU(inplace=True)\n          )\n          (cv2): Conv(\n  \
  \          (conv): Conv2d(256, 128, kernel_size=(1, 1), stride=(1, 1), bias=False)\n\
  \            (bn): BatchNorm2d(128, eps=0.001, momentum=0.03, affine=True, track_running_stats=True)\n\
  \            (act): SiLU(inplace=True)\n          )\n          (cv3): Conv(\n  \
  \          (conv): Conv2d(256, 256, kernel_size=(1, 1), stride=(1, 1), bias=False)\n\
  \            (bn): BatchNorm2d(256, eps=0.001, momentum=0.03, affine=True, track_running_stats=True)\n\
  \            (act): SiLU(inplace=True)\n          )\n          (m): Sequential(\n\
  \            (0): Bottleneck(\n              (cv1): Conv(\n                (conv):\
  \ Conv2d(128, 128, kernel_size=(3, 3), stride=(1, 1), padding=(1, 1), bias=False)\n\
  \                (bn): BatchNorm2d(128, eps=0.001, momentum=0.03, affine=True, track_running_stats=True)\n\
  \                (act): SiLU(inplace=True)\n              )\n              (cv2):\
  \ Conv(\n                (conv): Conv2d(128, 128, kernel_size=(3, 3), stride=(1,\
  \ 1), padding=(1, 1), bias=False)\n                (bn): BatchNorm2d(128, eps=0.001,\
  \ momentum=0.03, affine=True, track_running_stats=True)\n                (act):\
  \ SiLU(inplace=True)\n              )\n            )\n            (1): Bottleneck(\n\
  \              (cv1): Conv(\n                (conv): Conv2d(128, 128, kernel_size=(3,\
  \ 3), stride=(1, 1), padding=(1, 1), bias=False)\n                (bn): BatchNorm2d(128,\
  \ eps=0.001, momentum=0.03, affine=True, track_running_stats=True)\n           \
  \     (act): SiLU(inplace=True)\n              )\n              (cv2): Conv(\n \
  \               (conv): Conv2d(128, 128, kernel_size=(3, 3), stride=(1, 1), padding=(1,\
  \ 1), bias=False)\n                (bn): BatchNorm2d(128, eps=0.001, momentum=0.03,\
  \ affine=True, track_running_stats=True)\n                (act): SiLU(inplace=True)\n\
  \              )\n            )\n          )\n        )\n      )\n    )\n    (23):\
  \ Detect(\n      (cv2): ModuleList(\n        (0): Sequential(\n          (0): Conv(\n\
  \            (conv): Conv2d(256, 64, kernel_size=(3, 3), stride=(1, 1), padding=(1,\
  \ 1), bias=False)\n            (bn): BatchNorm2d(64, eps=0.001, momentum=0.03, affine=True,\
  \ track_running_stats=True)\n            (act): SiLU(inplace=True)\n          )\n\
  \          (1): Conv(\n            (conv): Conv2d(64, 64, kernel_size=(3, 3), stride=(1,\
  \ 1), padding=(1, 1), bias=False)\n            (bn): BatchNorm2d(64, eps=0.001,\
  \ momentum=0.03, affine=True, track_running_stats=True)\n            (act): SiLU(inplace=True)\n\
  \          )\n          (2): Conv2d(64, 64, kernel_size=(1, 1), stride=(1, 1))\n\
  \        )\n        (1-2): 2 x Sequential(\n          (0): Conv(\n            (conv):\
  \ Conv2d(512, 64, kernel_size=(3, 3), stride=(1, 1), padding=(1, 1), bias=False)\n\
  \            (bn): BatchNorm2d(64, eps=0.001, momentum=0.03, affine=True, track_running_stats=True)\n\
  \            (act): SiLU(inplace=True)\n          )\n          (1): Conv(\n    \
  \        (conv): Conv2d(64, 64, kernel_size=(3, 3), stride=(1, 1), padding=(1, 1),\
  \ bias=False)\n            (bn): BatchNorm2d(64, eps=0.001, momentum=0.03, affine=True,\
  \ track_running_stats=True)\n            (act): SiLU(inplace=True)\n          )\n\
  \          (2): Conv2d(64, 64, kernel_size=(1, 1), stride=(1, 1))\n        )\n \
  \     )\n      (cv3): ModuleList(\n        (0): Sequential(\n          (0): Sequential(\n\
  \            (0): DWConv(\n              (conv): Conv2d(256, 256, kernel_size=(3,\
  \ 3), stride=(1, 1), padding=(1, 1), groups=256, bias=False)\n              (bn):\
  \ BatchNorm2d(256, eps=0.001, momentum=0.03, affine=True, track_running_stats=True)\n\
  \              (act): SiLU(inplace=True)\n            )\n            (1): Conv(\n\
  \              (conv): Conv2d(256, 256, kernel_size=(1, 1), stride=(1, 1), bias=False)\n\
  \              (bn): BatchNorm2d(256, eps=0.001, momentum=0.03, affine=True, track_running_stats=True)\n\
  \              (act): SiLU(inplace=True)\n            )\n          )\n         \
  \ (1): Sequential(\n            (0): DWConv(\n              (conv): Conv2d(256,\
  \ 256, kernel_size=(3, 3), stride=(1, 1), padding=(1, 1), groups=256, bias=False)\n\
  \              (bn): BatchNorm2d(256, eps=0.001, momentum=0.03, affine=True, track_running_stats=True)\n\
  \              (act): SiLU(inplace=True)\n            )\n            (1): Conv(\n\
  \              (conv): Conv2d(256, 256, kernel_size=(1, 1), stride=(1, 1), bias=False)\n\
  \              (bn): BatchNorm2d(256, eps=0.001, momentum=0.03, affine=True, track_running_stats=True)\n\
  \              (act): SiLU(inplace=True)\n            )\n          )\n         \
  \ (2): Conv2d(256, 12, kernel_size=(1, 1), stride=(1, 1))\n        )\n        (1-2):\
  \ 2 x Sequential(\n          (0): Sequential(\n            (0): DWConv(\n      \
  \        (conv): Conv2d(512, 512, kernel_size=(3, 3), stride=(1, 1), padding=(1,\
  \ 1), groups=512, bias=False)\n              (bn): BatchNorm2d(512, eps=0.001, momentum=0.03,\
  \ affine=True, track_running_stats=True)\n              (act): SiLU(inplace=True)\n\
  \            )\n            (1): Conv(\n              (conv): Conv2d(512, 256, kernel_size=(1,\
  \ 1), stride=(1, 1), bias=False)\n              (bn): BatchNorm2d(256, eps=0.001,\
  \ momentum=0.03, affine=True, track_running_stats=True)\n              (act): SiLU(inplace=True)\n\
  \            )\n          )\n          (1): Sequential(\n            (0): DWConv(\n\
  \              (conv): Conv2d(256, 256, kernel_size=(3, 3), stride=(1, 1), padding=(1,\
  \ 1), groups=256, bias=False)\n              (bn): BatchNorm2d(256, eps=0.001, momentum=0.03,\
  \ affine=True, track_running_stats=True)\n              (act): SiLU(inplace=True)\n\
  \            )\n            (1): Conv(\n              (conv): Conv2d(256, 256, kernel_size=(1,\
  \ 1), stride=(1, 1), bias=False)\n              (bn): BatchNorm2d(256, eps=0.001,\
  \ momentum=0.03, affine=True, track_running_stats=True)\n              (act): SiLU(inplace=True)\n\
  \            )\n          )\n          (2): Conv2d(256, 12, kernel_size=(1, 1),\
  \ stride=(1, 1))\n        )\n      )\n      (dfl): DFL(\n        (conv): Conv2d(16,\
  \ 1, kernel_size=(1, 1), stride=(1, 1), bias=False)\n      )\n    )\n  )\n)"
distillation_loss: cwd
lr0: 0.01
lrf: 0.01
momentum: 0.937
weight_decay: 0.0005
warmup_epochs: 3.0
warmup_momentum: 0.8
warmup_bias_lr: 0.1
box: 7.5
cls: 0.5
dfl: 1.5
pose: 12.0
kobj: 1.0
label_smoothing: 0.0
nbs: 64
hsv_h: 0.015
hsv_s: 0.5
hsv_v: 0.3
degrees: 0.0
translate: 0.1
scale: 0.5
shear: 0.0
perspective: 0.0
…
